…
axPooling1D(pool_size=2)) model.add(Flatten()) model.add(Dense(128, activation=&#39;relu&#39;)) model.add(Dropout(0.3)) model.add(Dense(1,&#39;linear&#39;)) model.summary() model.compile(loss=Huber(), optimizer=Adam(lr=3e-4),metrics=[&quot;mae&quot;]) history = model.fit(X_train, y_train, epochs=40, batch_size=128,shuffle=True, validation_data=(X_valid,y_valid) ,callbacks =[reduceLR]) . Model: &#34;sequential&#34; _________________________________________________________________ Layer (type) Output Shape Param # ================================================================= conv1d (Conv1D) (None, 5, 64) 2368 _________________________________________________________________ max_pooling1d (MaxPooling1D) (None, 2, 64) 0 _________________________________________________________________ flatten (Flatten) (None, 128) 0 _________________________________________________________________ dense (Dense) (None, 128) 16512 _________________________________________________________________ dropout (Dropout) (None, 128) 0 _________________________________________________________________ dense_1 (Dense) (None, 1) 129 ================================================================= Total params: 19,009 Trainable params: 19,009 Non-trainable params: 0 _________________________________________________________________ Epoch 1/40 282/282 [==============================] - 1s 5ms/step - loss: 11.4584 - mae: 11.9420 - val_loss: 4.0743 - val_mae: 4.5548 Epoch 2/40 282/282 [==============================] - 1s 4ms/st
…
0.3,return_sequences=True, input_shape=(window_size, X_train.shape[2]))) model2.add(Attention()) model2.add(Dropout(0.3)) model2.add(Dense(1,&#39;linear&#39;)) model2.compile(loss=Huber(), optimizer=Adam(lr=3e-4),metrics=[&quot;mae&quot;]) model2.summary() history2 = model2.fit(X_train, y_train, epochs=30, batch_size=64,shuffle=True, validation_data=(X_valid,y_valid) ,callbacks =[reduceLR]) . Model: &#34;sequential&#34; _________________________________________________________________ Layer (type) Output Shape Param # ================================================================= gru (GRU) (None, 5, 30) 3960 _________________________________________________________________ attention_score_vec (Dense) (None, 5, 30) 900 _________________________________________________________________ last_hidden_state (Lambda) (None, 30) 0 _________________________________________________________________ attention_score (Dot) (None, 5) 0 _________________________________________________________________ attention_weight (Activation (None, 5) 0 _________________________________________________________________ context_vector (Dot) (None, 30) 0 _________________________________________________________________ attention_output (Concatenat (None, 60) 0 _________________________________________________________________ attention_vector (Dense) (None, 128) 7680 _________________________________________________________________ dropout (Dropout) (None, 128) 0 _________________________________________________________________ dense (Dense) (None, 1) 129 ================================================================= Total params: 12,669 Trainable params: 12,669 Non-trainable params: 0 _________________________________________________________________ Epoch 1/30 564/564 [==============================] - 4s 7ms/step - loss: 10.6730 - mae: 11.1558 - val_loss: 6.6292 - val_mae: 7.1103 Epoch 2/30 564/564 [==============================] - 4s 7ms/st
…
